projects/ppo-LunarLander-v2/data/policy.pth (torch, 43393 bytes, 11 tensors)

mlp_extractor.policy_net.0.weight f4 [64, 8]
0	0x3ef76069	0.48315743
1	0x3e904253	0.281756
2	0x3ef40c11	0.47665456
3	0xbe274550	-0.16335034
4	0xbf2eca0b	-0.68277043
5	0x3d9f8244	0.07788518
6	0xbd1b6df2	-0.03794665
7	0xbcc1b5b3	-0.023646211
8	0x3f03737f	0.5134811
9	0xbe6f7610	-0.23384881
10	0x3d5a53f5	0.053302724
11	0xbe01f2b0	-0.12690234
12	0x3e78d89c	0.2430138
13	0x3d791adc	0.06081663
14	0xbe9e480f	-0.3091435
15	0xbd7d246c	-0.061802313
16	0xbe01ce8e	-0.1267645
17	0xbdb16547	-0.08661895
18	0xbf0aefea	-0.5427233
19	0xbe60a4c5	-0.21937855
20	0x3fa3088c	1.2736983
21	0x3f9f9f1c	1.2470431
22	0xbdb640bf	-0.08899068
23	0x3d56ae49	0.052412305
24	0xbecb4a91	-0.39705327
25	0x3e224747	0.15847503
26	0xbe70441a	-0.23463479
27	0x3ebce311	0.36891988
28	0xbf8930a9	-1.0717975
29	0xbf4c9f6f	-0.79930776
30	0xbd878905	-0.06617931
31	0xbdb1bbf2	-0.08678426
32	0xbf3d55da	-0.73959124
33	0xbdf4357f	-0.11924266
34	0xbeb24350	-0.3481698
35	0xbdb773c3	-0.08957627
36	0x3f3926ce	0.72324836
37	0x3edb0438	0.42776656
38	0xbcaaa172	-0.020828936
39	0x3da81fa8	0.08209163
40	0xbddcd5b0	-0.10782945
41	0x3ceabb63	0.028653806
42	0xbd10f4b7	-0.03538963
43	0xbdb6374f	-0.08897268
44	0xbf59f9cd	-0.8514679
45	0xbf0fc08b	-0.5615317
46	0xbe6a3eb9	-0.2287549
47	0xbe99ffd9	-0.3007801
48	0xbf0af9bb	-0.5428731
49	0x3e4eec7e	0.20207402
50	0xbe570368	-0.20997393
51	0x3eabae2b	0.33531317
52	0x3e210c6b	0.15727393
53	0x3f183919	0.59462124
54	0xbdf605ae	-0.12012802
55	0x3eabd785	0.33562866
56	0x3f7a298a	0.97719634
57	0xbd4d6188	-0.05014184
58	0xbd09c727	-0.033637192
59	0x3d019795	0.0316387
60	0xbf127481	-0.5720902
61	0xbe13a98b	-0.14420144
62	0xbec5ecd5	-0.3865725
63	0x3f075e23	0.52878016
64	0xbd78a1a7	-0.06070104
65	0x3ead56a8	0.33855176
66	0xbce2752f	-0.027643768
67	0x3f35c63f	0.71005625
68	0x3de80da9	0.113307305
69	0x3e33a60c	0.1754381
70	0xbd95c3c9	-0.07312734
71	0xbe2ba082	-0.16760448
72	0x3f309d24	0.6898978
73	0x3d277a3f	0.040888067
74	0x3f6747fe	0.90344226
75	0x3dff0f49	0.12454087
76	0xbe93997d	-0.2882804
77	0x3f0571db	0.52126855
78	0x3e0e199b	0.13876955
79	0xbc8f9039	-0.017524825
80	0x3d7ef9ad	0.062249828
81	0x3dc8b5f4	0.0980033
82	0x3ebdb430	0.37051535
83	0xbe7a94bd	-0.24470802
84	0xbf86e9f0	-1.0540142
85	0xbf91ac9c	-1.1380801
86	0xbe395c70	-0.18101668
87	0x3de75b3f	0.11296701
88	0x3e31ba75	0.17356284
89	0xbe49923c	-0.1968469
90	0xbe2d1b53	-0.16904955
91	0xbf23fcd5	-0.64057666
92	0x3ec3cb50	0.38241053
93	0x3ea5ac5c	0.32358062
94	0x3da2d0cc	0.07949981
95	0xbec78bb2	-0.38973767
96	0xbeb43eeb	-0.35204253
97	0xbe382798	-0.17983854
98	0x3db6ce96	0.08926122
99	0x3f402b83	0.75066394
100	0x3e65acde	0.22429225
101	0xbed44149	-0.4145606
102	0x3eabb3dd	0.33535662
103	0xbe46d8c1	-0.19418623
104	0x3f0bb1f1	0.5456839
105	0x3e16ae85	0.14715011
106	0x3f11ef34	0.5700562
107	0x3f06aaa5	0.5260413
108	0xbf1b4ea5	-0.6066688
109	0xbe82b577	-0.25529072
110	0x3c9ad764	0.018901534
111	0x3d13996b	0.036034983
112	0x3ecaf4cf	0.396399
113	0x3cfc147e	0.03077149
114	0x3f151818	0.5823989
115	0xbbd97768	-0.006636549
116	0xbf524c92	-0.8214809
117	0xbff18691	-1.8869191
118	0xbf293fb2	-0.66112816
119	0x3c85f570	0.016352385
120	0xbe98ad17	-0.29819557
121	0x3f080ba8	0.53142786
122	0x3dbbe1c9	0.091739245
123	0x3ef65f6c	0.48119676
124	0x3f24edcf	0.6442537
125	0xbdb405c6	-0.08790164
126	0x3d6e5711	0.0581885
127	0xbe0c6046	-0.137086
128	0x3fa8e483	1.3194736
129	0xbe30c72e	-0.17263481
130	0x3ed71da4	0.42014802
131	0x3e044eac	0.12920636
132	0xbe165464	-0.1468063
133	0x3e04638a	0.12928596
134	0x3e5c83f3	0.2153471
135	0x3efd426d	0.4946474
136	0xbde0d1de	-0.10977529
137	0xbdc6fbf0	-0.09716022
138	0xbece76f9	-0.40325144
139	0xbf60e83b	-0.87854356
140	0x3ece0122	0.4023524
141	0x3f47c91e	0.78041255
142	0xbe32ae63	-0.17449336
143	0x3d565a06	0.052331947
144	0x3db83deb	0.08996185
145	0x3d3e3b6f	0.0464434
146	0xbe733b12	-0.23753002
147	0xbe6208f5	-0.2207373
148	0x3f7bc0bb	0.9834096
149	0x3f9a7805	1.2067877
150	0x3d2bd621	0.041952256
151	0x3e1ecf2e	0.1550872
152	0x3ec52b40	0.3850956
153	0x3e74fc3b	0.23924343
154	0xbeb4cb3f	-0.35311314
155	0x3ef7287b	0.48273072
156	0x3f9e2630	1.2355404
157	0x3f5d8c52	0.86542237
158	0x3e3133f8	0.17304981
159	0x3e9123d0	0.28347635
160	0xbf29336d	-0.66094095
161	0xbe864b3a	-0.26229268
162	0xbd915356	-0.07095973
163	0xbf034fc0	-0.51293564
164	0xbeef850a	-0.46781188
165	0xbeb56c8c	-0.35434377
166	0x3f1cd7cc	0.6126678
167	0x3ef25240	0.47328377
168	0x3e519716	0.20467791
169	0x3ea60907	0.32428762
170	0xbe00ca1e	-0.12577102
171	0x3f0190f8	0.5061183
172	0xbf137b43	-0.5760996
173	0xbde4e489	-0.11176402
174	0xbf144816	-0.57922494
175	0xbf1b141c	-0.6057756
176	0x3f027f34	0.50975347
177	0x3edbdecb	0.42943415
178	0x3ea414c5	0.32047096
179	0x3ed84c0c	0.4224552
180	0x3f1ec7ea	0.62023795
181	0x3eb63bfc	0.3559264
182	0xbe96fd60	-0.29490185
183	0x3df5291f	0.11970734
184	0x3f6505b7	0.89461845
185	0x3d8c8927	0.06862097
186	0x3f1a0356	0.6016134
187	0x3cd2d045	0.025734076
188	0xbef61fbe	-0.48071092
189	0xbf2e3991	-0.6805659
190	0x3d59a1b0	0.053132713
191	0xbcf236ae	-0.029567089
192	0xbf2db997	-0.6786131
193	0x3db560e8	0.08856374
194	0xbf10d01c	-0.5656755
195	0xbed4fe63	-0.41600332
196	0x3e783d7d	0.24242206
197	0xbf1fa31b	-0.62358254
198	0xbd8a0451	-0.067391045
199	0x3cecfc88	0.02892901
200	0xbf825a51	-1.0183812
201	0x3e10bf4b	0.14135472
202	0xbf1af840	-0.6053505
203	0xbd4a7b0a	-0.049433745
204	0x3f543cd8	0.8290534
205	0x3f82bbb4	1.0213532
206	0x3c23ad99	0.009990119
207	0xbbffbe34	-0.0078046564
208	0x3f27bff6	0.65527284
209	0xbe517f7b	-0.20458786
210	0x3f431337	0.76201195
211	0xbf2b1928	-0.6683526
212	0xbeb9c233	-0.36280975
213	0xbd33d322	-0.043902524
214	0x3e31dcc3	0.1736937
215	0xbdef1447	-0.116737895
216	0x3d8838bf	0.066514485
217	0x3dad391a	0.08458157
218	0x3d6e2b55	0.058146793
219	0x3f4d908d	0.8029869
220	0xbb1b5141	-0.0023699554
221	0x3f1a7018	0.6032729
222	0x3c691084	0.014225129
223	0xbc075977	-0.008261076
224	0xbdb2674c	-0.087111086
225	0x3e0e7e55	0.1391538
226	0x3d881f60	0.06646609
227	0xbd34e97a	-0.044167973
228	0x3ee2e565	0.4431564
229	0xbf8138f8	-1.009551
230	0x3c374403	0.011185649
231	0xbe0c1333	-0.13679199
232	0xbf0d5a7d	-0.552162
233	0xbcfa8913	-0.03058294
234	0x3e0fa763	0.14028697
235	0xbed9cd8e	-0.42539638
236	0xbde6d5ce	-0.11271249
237	0xbe7664e9	-0.24061932
238	0xbe0f53fb	-0.1399688
239	0xbe1e2933	-0.15445404
240	0xbf33a4d1	-0.70173365
241	0x3e00188c	0.12509364
242	0xbf069011	-0.5256358
243	0x3d8a794e	0.06761418
244	0x3f674db5	0.90352947
245	0x3f80407f	1.0019683
246	0x3e389d42	0.18028739
247	0xbc1e2d92	-0.0096544195
248	0xbe55c635	-0.20876391
249	0x3e4b5ad4	0.19858867
250	0xbec15e68	-0.3776734
251	0x3f56553c	0.8372381
252	0x3f403ae6	0.7508987
253	0x3e97848e	0.2959332
254	0xbd7b25e5	-0.061315436
255	0x3e761f8d	0.24035473

mlp_extractor.policy_net.0.bias f4 [64]
0	0xbb0c5b87	-0.002141686
1	0x3dc06051	0.09393371
2	0xbd91dac4	-0.07121804
3	0x3e0c7b63	0.13718943
4	0x3d8adbe0	0.06780219
5	0x3e17203c	0.1475839
6	0xbb7ca465	-0.0038550135
7	0x3e283683	0.16427045
8	0x3d9744f7	0.07386201
9	0xbc89e1d9	-0.016831325
10	0xbdd85828	-0.105636895
11	0xbd77ec46	-0.060528062
12	0xbe231d8c	-0.1592924
13	0x3c9dd1cb	0.019265076
14	0xbe3913d6	-0.18073973
15	0xbc30e43d	-0.010796604
16	0x3c85e9bc	0.016346805
17	0xbd8c9ddd	-0.068660475
18	0xbd615a53	-0.05501778
19	0xbb204516	-0.002445524
20	0xbdd92b6e	-0.10603987
21	0x3d8efbdb	0.06981631
22	0x3e251e29	0.16124786
23	0x3c927a6c	0.01788064
24	0xbc95cd5d	-0.018286401
25	0xbde90fc0	-0.11379957
26	0x3cd2102d	0.025642479
27	0x3e43c834	0.1911934
28	0x3c4334d8	0.011914454
29	0xbe57bc82	-0.21068004
30	0xbdb660ee	-0.089052066
31	0xbd646923	-0.05576433
32	0xbe58b32d	-0.211621
33	0x3da7cb97	0.081931286
34	0x3cb8347f	0.02248597
35	0xbcf92835	-0.03041468
36	0xbd809e6e	-0.06280218
37	0xbd330bee	-0.04371255
38	0xbd8afe5e	-0.06786798
39	0xbd3a768c	-0.04552321
40	0x3dd99a6a	0.10625155
41	0x3d99da1e	0.07512306
42	0x3dab3c33	0.083610915
43	0x3e49a53b	0.19691937
44	0x3dbfcd17	0.0936529
45	0x3d0bc44b	0.034122746
46	0xbcef7aea	-0.029233415
47	0xbe382403	-0.17982487
48	0xbde7e181	-0.11322308
49	0xbda6a141	-0.081362255
50	0x3d8e070b	0.06934937
51	0x3da82ba6	0.0821145
52	0x3cfd6954	0.030934013
53	0x3e5039a8	0.20334494
54	0xbe090d64	-0.13384014
55	0x3d96f5a2	0.073710695
56	0xbde94b03	-0.113912605
57	0xbe08eb1e	-0.1337094
58	0xbe215a19	-0.15757026
59	0x3d39a9f2	0.045328088
60	0xbe3f2549	-0.18666567
61	0xbb96140b	-0.004580026
62	0xbc471ece	-0.0121533405
63	0xbdc51124	-0.0962241

mlp_extractor.policy_net.2.weight f4 [64, 64]
0	0x3eb9fc95	0.36325517
1	0xbdae5b4c	-0.08513507
2	0xbe238e85	-0.15972336
3	0xbe107e0f	-0.14110588
4	0x3e065a4d	0.13120385
5	0x3e86cbfe	0.2632751
6	0x3e97c8fc	0.29645526
7	0x3e60d866	0.2195755
8	0xbe54b7f9	-0.20773305
9	0x3c9c130f	0.019052057
10	0xbbc21117	-0.0059224474
11	0x3efdf2e7	0.49599382
12	0xbecb637e	-0.39724344
13	0xbe285c92	-0.16441563
14	0x3cb1862c	0.021670423
15	0x3d5666e4	0.052344218
16	0x3e5cce64	0.21563107
17	0x3e82911e	0.2550134
18	0x3e4c62a0	0.19959497
19	0xbe96a574	-0.29423106
20	0xbc52005b	-0.012817468
21	0xbeb0303f	-0.3441181
22	0xbad51190	-0.0016255844
23	0xbd579cc7	-0.05263975
24	0xbc56045d	-0.013062564
25	0xbdf4a02b	-0.11944612
26	0x3f4df90d	0.80458146
27	0x3e03b86c	0.1286332
28	0x3dbfdf2a	0.09368737
29	0xbe53db14	-0.2068904
30	0xbea371e6	-0.31922835
31	0xbf0051d0	-0.50124836
32	0x3dddcd3d	0.10830162
33	0xbe3a6cfb	-0.18205635
34	0xbec46361	-0.3835707
35	0xbf17f1dc	-0.59353423
36	0x3ba61e0a	0.005069499
37	0x3d7f9735	0.06240006
38	0xbead7830	-0.33880758
39	0xbb50964c	-0.0031827865
40	0xbec46047	-0.38354704
41	0xbf083300	-0.5320282
42	0xbdf0f754	-0.11765924
43	0xbe34a81e	-0.17642257
44	0xbc45b354	-0.012066681
45	0xbe687b53	-0.22703294
46	0xbd193f83	-0.037414085
47	0x3e12daf8	0.14341342
48	0xbd0a6bf9	-0.033794377
49	0x3d9c70d8	0.07638711
50	0x3f04df13	0.51902884
51	0x3daeadf5	0.085292734
52	0x3eac7370	0.33681822
53	0xbda7d366	-0.08194618
54	0xbecd5296	-0.4010207
55	0x3b87b8fa	0.004141924
56	0x3db6831e	0.08911727
57	0xbe22547b	-0.15852539
58	0xbd89722b	-0.06711229
59	0x3ef1e535	0.47245184
60	0xbdf780bf	-0.12085103
61	0xbdc3bb45	-0.09557203
62	0xbec106c0	-0.37700462
63	0xbeb913d1	-0.3614793
64	0xbd42280d	-0.047401477
65	0x3e5cf4ab	0.21577708
66	0x3d2be380	0.041965008
67	0x3e1ace8f	0.15117858
68	0xbe9b30be	-0.30310625
69	0x3dc504d5	0.09620062
70	0xbd144d7c	-0.036206707
71	0xbf10557e	-0.5638045
72	0xbe935aef	-0.28780314
73	0x3e573246	0.21015272
74	0x3d23c921	0.039986733
75	0x3e7b8ebf	0.24566172
76	0xbe74ace6	-0.2389408
77	0x3e1e475b	0.15456907
78	0x3d80ad84	0.062830955
79	0xbd2f1ff4	-0.042755082
80	0xbeb6e531	-0.35721734
81	0xbeece939	-0.46271685
82	0xbe0e6400	-0.13905334
83	0xbde40367	-0.111334614
84	0xbe42916c	-0.19000787
85	0x3e53a7e5	0.20669515
86	0x3e019e3a	0.12658015
87	0x3d8a66b2	0.06757869
88	0xbeb1a4aa	-0.3469594
89	0x3d308254	0.04309304
90	0x3e3fa238	0.18714225
91	0xbd81fc3e	-0.063469395
92	0xbdfe5099	-0.124177165
93	0xbea1184d	-0.31463853
94	0xbe1b43bb	-0.15162556
95	0x3da01ec6	0.078183696
96	0x3c5407bb	0.012941296
97	0x3d03d593	0.032186102
98	0x3d63177c	0.05544232
99	0x3e308be4	0.17240864
100	0xbd7edcce	-0.062222295
101	0x3de4b3ce	0.111671075
102	0xbe11c26e	-0.14234325
103	0xbe67ce55	-0.22637303
104	0x3e448758	0.19192255
105	0x3e762fc8	0.24041665
106	0x3d453719	0.04814825
107	0xbd0e8fb4	-0.034805015
108	0xbdce0080	-0.10058689
109	0xbe641362	-0.22273019
110	0xbebed161	-0.37269118
111	0xbd4b4d5e	-0.04963433
112	0x3e13fed6	0.14452681
113	0xbe39dad8	-0.18149889
114	0xbde86168	-0.11346704
115	0xbc8fad47	-0.01753868
116	0x3dca5851	0.09880126
117	0x3e25f75b	0.1620764
118	0xbe1b1431	-0.15144421
119	0xbe925853	-0.2858301
120	0xbdaa8f9a	-0.08328171
121	0xbe874fc9	-0.2642806
122	0x3eb5462b	0.35405096
123	0xbcf5f562	-0.030024234
124	0x3d988d41	0.07448817
125	0xbe0d2617	-0.13784061
126	0x3b51ef1d	0.0032033392
127	0xbe680564	-0.22658306
128	0x3dafa875	0.085770525
129	0x3d225abb	0.03963731
130	0x3e6f1a19	0.23349799
131	0xbe15531c	-0.14582485
132	0xbe4f97cc	-0.2027275
133	0xbdd1f245	-0.10251287
134	0x3db34ce7	0.08754902
135	0xbb9c06e7	-0.004761565
136	0x3e834987	0.25642034
137	0x3d20175e	0.039084785
138	0xbcff2174	-0.031143881
139	0x3e169a41	0.1470728
140	0xbdadeb7c	-0.08492181
141	0x3e17484c	0.14773673
142	0xbe2ce67a	-0.16884795
143	0xbe8de6ec	-0.27715242
144	0x3de347e4	0.110976964
145	0xbcfdcf34	-0.030982591
146	0xbe79ef34	-0.24407655
147	0x3bd48b6b	0.0064863465
148	0xbd95d327	-0.07315665
149	0xbe8f9b59	-0.28048208
150	0x3d92dd23	0.07171085
151	0xbe173bf6	-0.14768967
152	0xbe073520	-0.1320386
153	0x3e8897dc	0.2667836
154	0x3d34b814	0.044120863
155	0xbda05b73	-0.078299426
156	0x3d30a5a8	0.043126732
157	0x3d7bc94b	0.061471265
158	0xbde08d4d	-0.10964451
159	0x3e2fea0a	0.17179123
160	0xbe031feb	-0.12805144
161	0xbd6cabfc	-0.057781205
162	0xbeafcf6e	-0.34337944
163	0x3ea441a5	0.32081333
164	0x3ee32186	0.44361514
165	0x3d8c801d	0.06860373
166	0xbe72f579	-0.23726453
167	0xbc8a597f	-0.016888378
168	0x3e2e12a0	0.16999292
169	0xbdaf4ead	-0.08559928
170	0x3dda80bf	0.106690876
171	0xbdd18964	-0.10231283
172	0x3d23ffc2	0.04003883
173	0x3e447dc6	0.19188604
174	0x3d009aca	0.03139762
175	0xbdac9c44	-0.08428243
176	0xbdc49c47	-0.0960012
177	0xbdd3cbb1	-0.103415854
178	0xbee42009	-0.4455569
179	0xbe196fc7	-0.14984046
180	0x3e08f597	0.13374935
181	0x3ec513e8	0.3849175
182	0xbcb7c984	-0.022434957
183	0x3d180f62	0.037124045
184	0xbe040d73	-0.12895755
185	0x3e522734	0.20522767
186	0xbd52f85e	-0.051506393
187	0x3e4eaa83	0.20182233
188	0xbe6cafe6	-0.23113975
189	0xbca0f492	-0.01964787
190	0x3bcbe830	0.0062227473
191	0xbe108e51	-0.1411679
192	0x3d56f3df	0.052478667
193	0x3de8f0c5	0.11374048
194	0xbde7dc8c	-0.11321363
195	0xbdd72ea8	-0.10506946
196	0xbdba6bb1	-0.09102572
197	0x3e8d6e50	0.27623224
198	0xbdf950a3	-0.12173583
199	0xbe63eedb	-0.22259085
200	0xbdf8b67f	-0.12144183
201	0x3e091eaf	0.13390611
202	0xbdb51451	-0.08841766
203	0xbe1d312e	-0.15350792
204	0x3e8f7e7c	0.28026187
205	0x3dba1889	0.09086711
206	0x3e8cd4c5	0.2750608
207	0x3ea4cfc6	0.3218977
208	0xbe2cdc25	-0.16880853
209	0xbc26d3e6	-0.010182356
210	0xbe28e920	-0.1649518
211	0x3d2ddf11	0.04244906
212	0xbc7ffc1d	-0.015624073
213	0x3ddc0c5f	0.10744547
214	0x3dae3ba3	0.085074686
215	0x3dfae892	0.122513905
216	0x3e128c77	0.14311396
217	0xbe8d2b25	-0.2757198
218	0x3e0e54bc	0.13899511
219	0xbee3132a	-0.4435056
220	0xbdc956cd	-0.09831009
221	0x3cfc6b18	0.030812785
222	0x3ec375b6	0.38175744
223	0xbe182ee4	-0.14861637
224	0x3d1e7689	0.038687263
225	0xbe7512ea	-0.23932996
226	0xbe493a78	-0.1965121
227	0xbe1a202f	-0.1505134
228	0xbca19a1f	-0.019726811
229	0xbe3a4d3a	-0.18193522
230	0x3eae3df0	0.3403163
231	0x3d8dcad3	0.06923451
232	0xbded0572	-0.11573304
233	0xbe5dde50	-0.21666837
234	0xbe02b2f3	-0.12763576
235	0x3cd0e26d	0.025498593
236	0x3e346f6f	0.17620634
237	0xbdedd387	-0.11612611
238	0xba71156a	-0.00091966114
239	0x3e3029a2	0.17203382
240	0x3db8d842	0.09025623
241	0xbddaf69e	-0.1069157
242	0xbd8018ae	-0.06254707
243	0x3e2cd437	0.16877829
244	0x3e8e41f2	0.27784687
245	0xbd6baac2	-0.057535894
246	0x3d8ecfaa	0.069732025
247	0xbe354d62	-0.177053
248	0x3e022164	0.1270805
249	0x3e3a615d	0.18201204
250	0x3dbd0500	0.09229469
251	0x3eb86702	0.3601609
252	0xbe8809a3	-0.26569852
253	0xbe3e345a	-0.18574658
254	0xbc461a9e	-0.012091307
255	0x3d3ea54f	0.04654437

mlp_extractor.policy_net.2.bias f4 [64]
0	0x3eb47bb4	0.35250628
1	0xbdd4d57e	-0.10392283
2	0x3be86e42	0.007093222
3	0xbd92f233	-0.07175102
4	0x3d07c919	0.033150766
5	0xbe053e97	-0.13012157
6	0x3d1e8016	0.03869637
7	0x3cba30ba	0.022728313
8	0x3d7628ea	0.060097612
9	0x3e5319ca	0.20615306
10	0x3bd41374	0.0064720456
11	0x3e4b9c87	0.19883929
12	0xbe4418e3	-0.19150119
13	0x3db36f8f	0.087615125
14	0xbd89dfbb	-0.06732126
15	0x3dd66ec8	0.104703486
16	0x3e233f7e	0.15942189
17	0x3da5a60f	0.08088314
18	0x3cb72641	0.022357108
19	0xbf02069a	-0.50791323
20	0xbe25f1eb	-0.16205566
21	0xbce4d2f7	-0.027932627
22	0xbe01847c	-0.12648195
23	0xbe1fe005	-0.156128
24	0xbe5398c1	-0.2066374
25	0xbc9ee428	-0.019395903
26	0xb8ea341f	-0.00011167698
27	0xbd267326	-0.040637158
28	0x3d172d87	0.036908653
29	0xbe07773e	-0.13229081
30	0x3d701dd6	0.058622204
31	0x3e7f52a6	0.24933872
32	0xbe479a95	-0.19492562
33	0x3dc0b6a4	0.09409836
34	0x3ba41fe1	0.005008683
35	0x3d8b5bb6	0.06804602
36	0xbe17ab42	-0.14811423
37	0x3e96185a	0.29315454
38	0x3dba62a5	0.09100846
39	0xbe5481d7	-0.20752655
40	0x3e6e4420	0.23268175
41	0x3e497a04	0.19675452
42	0x3ed74f4f	0.42052695
43	0x3e6cbe9c	0.23119587
44	0xbb28000d	-0.0025634796
45	0x3ccbed57	0.024893446
46	0x3bf9d576	0.0076243235
47	0xbe80880d	-0.25103799
48	0x3c5023a6	0.012703812
49	0xbcf9b76b	-0.030482968
50	0xbda37d11	-0.07982839
51	0xbd9ed487	-0.0775538
52	0xbbc2425f	-0.005928322
53	0x3dc61520	0.09671998
54	0x3d9d0007	0.07666021
55	0xbd868240	-0.06567812
56	0x3c938164	0.018006034
57	0xbd74e0b0	-0.05978459
58	0xbe2c23a0	-0.16810465
59	0xbb5c66ab	-0.003363053
60	0xbdb926ea	-0.090406254
61	0xbcff2e06	-0.031149875
62	0xbd6dd559	-0.058064792
63	0x3d7f4f5f	0.062331554

mlp_extractor.value_net.0.weight f4 [64, 8]
0	0xbe8a0b26	-0.2696163
1	0x3d0e5d74	0.034757093
2	0x3f9a8b61	1.2073785
3	0x3f855fe1	1.0419885
4	0x3faa704a	1.3315518
5	0xbf2dc477	-0.67877907
6	0xbd18d964	-0.037316695
7	0xbb82f1f2	-0.0039961273
8	0x3f405371	0.7512732
9	0xbeea7500	-0.4579239
10	0x3f85d9ce	1.0457094
11	0xbe34c5fe	-0.17653653
12	0x3fd33258	1.6499739
13	0xbea21ea7	-0.3166401
14	0x3e5ac103	0.2136269
15	0xbe374735	-0.17898257
16	0xbe8e36a8	-0.27776074
17	0x3dfe5c23	0.124199174
18	0x3eb21b31	0.3478637
19	0xbc98624d	-0.018601561
20	0xbfed10fb	-1.8520807
21	0xbcffff11	-0.031249555
22	0xbe4db95a	-0.20090237
23	0x3efff0a7	0.4998829
24	0xbeb1a123	-0.3469325
25	0x3f223eae	0.6337689
26	0xbe092239	-0.13391961
27	0x3bbd8823	0.005784051
28	0xbd046434	-0.032322124
29	0xbe818269	-0.25294808
30	0xbef0ab00	-0.47005463
31	0xbf15f396	-0.5857481
32	0x3ff3a593	1.9034904
33	0xbf8c2352	-1.0948279
34	0xbf0783e7	-0.5293564
35	0xbe5a83d0	-0.21339345
36	0xc00fd038	-2.2470837
37	0xbfc7a9a5	-1.5598646
38	0x3fe2581d	1.768314
39	0xbd9bf1c4	-0.076144725
40	0x4003eaf0	2.0612144
41	0x3f4bdb45	0.79631454
42	0x3eb0bfaa	0.34521228
43	0x3e57950e	0.21052954
44	0xbfefd673	-1.873732
45	0xbf720d7d	-0.9455183
46	0x3dbbe811	0.091751225
47	0x3ef2a5b1	0.47392038
48	0x3f24ddd2	0.6440097
49	0x3e6adf2d	0.22936697
50	0xbf29f865	-0.66394645
51	0xbeb5afe3	-0.35485753
52	0xbf949643	-1.1608356
53	0x3ed258ed	0.4108347
54	0xbe422afb	-0.18961708
55	0x3d91e31f	0.07123398
56	0xbf6c2d04	-0.9225619
57	0xbed8ab57	-0.42318222
58	0xbfe133c6	-1.7593925
59	0xbfac5c11	-1.3465596
60	0x3eb8c89a	0.36090547
61	0xbe5ffa0f	-0.21872734
62	0x3d877062	0.06613232
63	0x3e452c5d	0.19255204
64	0x3fd37ad3	1.6521858
65	0x3f59d50a	0.85090697
66	0xbd497838	-0.049186915
67	0x3d162c43	0.036663305
68	0xbf27a7aa	-0.6549021
69	0xbf93ec3c	-1.1556468
70	0x3ed8ef48	0.42370057
71	0x3c8ac648	0.016940251
72	0x3ef84617	0.48490974
73	0x3eaad7be	0.33367723
74	0x3e4f2bfd	0.20231624
75	0xbe110404	-0.14161688
76	0x40c66f9a	6.201123
77	0xbdf7733e	-0.120825276
78	0xbeac9265	-0.3370544
79	0x3d327d69	0.04357663
80	0x3ebcd8d3	0.36884174
81	0x3e25a674	0.16176778
82	0xbff6d020	-1.9282265
83	0x3f61b15e	0.88161266
84	0x3ee4b987	0.44672796
85	0xbe045ce2	-0.12926057
86	0xbe9bdead	-0.30443326
87	0x3e471e2c	0.19445103
88	0x3f1409de	0.57827556
89	0x3f312089	0.6919027
90	0x3e9b621f	0.30348298
91	0x3e291f3e	0.16515824
92	0xbe86154c	-0.26188123
93	0xbf3f42bc	-0.74711204
94	0xbe9e3d71	-0.3090625
95	0x3c8d40cb	0.01724281
96	0xbe198080	-0.14990425
97	0xbfe2661b	-1.768741
98	0x3fb8d3b2	1.4439604
99	0xbfb79b9e	-1.4344366
100	0xc017dca0	-2.372841
101	0xbc5e525c	-0.013569441
102	0xbf809113	-1.0044273
103	0x3dbf47b4	0.09339848
104	0xbf200c9b	-0.62519234
105	0xbf576ff5	-0.8415521
106	0xbe73613c	-0.2376756
107	0x3eed9257	0.4640071
108	0xbf167d93	-0.5878536
109	0x3f204178	0.625999
110	0x3e96eb71	0.29476503
111	0xbdab616b	-0.083681904
112	0xbf8edc9f	-1.1161078
113	0x3eed6002	0.4636231
114	0xbf97b66e	-1.1852548
115	0xbf82157f	-1.016281
116	0xbffc1f33	-1.9697021
117	0xbf073f44	-0.5283091
118	0x3e3e9f6a	0.18615499
119	0x3eaac0bf	0.3335018
120	0xc0926a1b	-4.5754523
121	0x3f797c94	0.97455716
122	0xbfdf1ce4	-1.7430692
123	0x3dd594f6	0.10428803
124	0x4002d1c7	2.0440538
125	0xbe93870c	-0.2881397
126	0x3ebe206d	0.37134114
127	0xbd5cd623	-0.053915154
128	0x3f809b57	1.0047406
129	0xbd2b9e07	-0.041898753
130	0xbfc2653a	-1.5187142
131	0xc09c4727	-4.8836856
132	0xbed54ec2	-0.4166165
133	0xbf3b5e32	-0.73190606
134	0xbf031a2e	-0.5121182
135	0x3c25ebe9	0.010127046
136	0x3d4bb03a	0.04972861
137	0xbf045ba2	-0.5170232
138	0x3eae7820	0.34076023
139	0xbd81a8ec	-0.063310474
140	0x3dfd8bdf	0.12380194
141	0xbf9e0399	-1.2344848
142	0xbe07068e	-0.13186094
143	0x3eaf44ec	0.3423227
144	0xbf3b322b	-0.73123425
145	0xc049e05b	-3.1543186
146	0x3fce6277	1.6123799
147	0x3f3434fe	0.7039336
148	0xbfd41e95	-1.6571833
149	0x3f08f33d	0.5349615
150	0x3edb681e	0.42852873
151	0x3ee59520	0.44840336
152	0x3eb74d52	0.35801178
153	0xc003cad0	-2.0592537
154	0xc00a16e5	-2.1576474
155	0x3e2fa6e7	0.17153512
156	0x3f38f161	0.72243315
157	0xbf0058a4	-0.50135255
158	0xbec6113a	-0.38685018
159	0xbdf8d665	-0.121502675
160	0x401f1476	2.4856238
161	0x3f7ec749	0.99522835
162	0x3f2cabdc	0.67449737
163	0xbf761e10	-0.9613962
164	0xbf42dc52	-0.7611743
165	0x3f38c3fe	0.7217406
166	0x3f0d014d	0.5508011
167	0x3e0e1b87	0.13877688
168	0xbff90a39	-1.9456245
169	0x3fa121ee	1.258848
170	0xbfaac2a0	-1.3340645
171	0xbfa32af3	-1.2747482
172	0x3f732cfb	0.9499051
173	0x3dca3995	0.09874264
174	0xbf02a6e9	-0.51035935
175	0x3eb9c889	0.3628581
176	0x3eb4e89a	0.3533371
177	0x40663da2	3.5975118
178	0xbf5ce1a8	-0.86281824
179	0xbe5afd7e	-0.21385762
180	0x3f67d800	0.90563965
181	0xbf82c378	-1.0215902
182	0x3d528f91	0.051406447
183	0xbe15f9e9	-0.14646114
184	0x3fa8b276	1.3179462
185	0xbf18e28f	-0.597207
186	0xbdb820ff	-0.089906685
187	0xbf9c6fff	-1.2221678
188	0x3f38bd98	0.721643
189	0x3f6307bb	0.8868367
190	0x3e02109f	0.12701653
191	0x3c5d906e	0.013523204
192	0xbf4ea088	-0.807137
193	0x3e52f37c	0.20600694
194	0xc00de59f	-2.21714
195	0xbf0768a6	-0.52894056
196	0x4012353c	2.2844992
197	0xbf625c4b	-0.8842208
198	0xbf1d9912	-0.6156169
199	0xbe3fdd2b	-0.18736713
200	0xbd8df5cf	-0.0693165
201	0xbf4688a0	-0.77552223
202	0x3dbc7d09	0.09203536
203	0xbc7f209b	-0.015571739
204	0xbf8943e9	-1.072385
205	0xbf974026	-1.1816452
206	0xbef757bb	-0.4830912
207	0x3e10a106	0.14123926
208	0x3f3063a9	0.6890207
209	0x3f80182e	1.0007379
210	0xbfb55e80	-1.4169464
211	0xbfd842fc	-1.6895442
212	0xbea4e145	-0.32203117
213	0xbe915a27	-0.28389093
214	0xbf52a4eb	-0.82282895
215	0xbf17233d	-0.59038144
216	0xbfdc52bc	-1.7212749
217	0x3ea3bdab	0.31980643
218	0x3f9a6999	1.2063476
219	0x3ec85711	0.39128926
220	0x3f97aebc	1.18502
221	0x3ed7430a	0.42043334
222	0x3f3120df	0.6919078
223	0x3e98edee	0.29869026
224	0x3f886bcf	1.06579
225	0xc04ed991	-3.2320292
226	0xbf2d3424	-0.67657685
227	0xbe95e71c	-0.29277885
228	0xbf333f0c	-0.70018077
229	0xbfc2120c	-1.5161757
230	0x3f5e6cc1	0.86884695
231	0x3bb5a833	0.0055437325
232	0xbef3ecda	-0.4764164
233	0x3f87dea1	1.0614816
234	0x3f8ba3f9	1.0909415
235	0xc02a412a	-2.6602273
236	0x3fc003ba	1.5001137
237	0xbf4ebd21	-0.8075734
238	0x3e53a2c9	0.20667566
239	0x3d816c93	0.06319537
240	0x3f229f5e	0.63524425
241	0xbfdf6832	-1.7453673
242	0x3f2e59a0	0.68105507
243	0x3fcda87a	1.606704
244	0xc0897a79	-4.2962003
245	0x3f2a7e69	0.66599137
246	0x3f480448	0.7813153
247	0x3e487227	0.19574796
248	0xbefec67f	-0.49760816
249	0xbee9b590	-0.45646334
250	0x3cb60eab	0.022223791
251	0x3e8b6d49	0.27231815
252	0xbea0199e	-0.31269544
253	0x3f66a2f7	0.90092415
254	0x3e4c90f0	0.19977164
255	0x3e81a8a5	0.25323978

mlp_extractor.value_net.0.bias f4 [64]
0	0xbee05f5f	-0.43822762
1	0xbe02b2a9	-0.12763466
2	0xbf0f148f	-0.55890745
3	0xbea6793b	-0.32514367
4	0xbe95d12a	-0.29261142
5	0x3f1738b1	0.5907088
6	0xbe8338f7	-0.25629398
7	0xbd303634	-0.043020442
8	0xbf4c1348	-0.7971692
9	0x3e46680c	0.19375628
10	0x3f30151e	0.6878222
11	0x3e1dd85d	0.15414567
12	0x3ea0ec3c	0.31430233
13	0xbe5c99ea	-0.21543089
14	0x3d4710e9	0.04860011
15	0x3f347190	0.7048578
16	0x3f77b76b	0.9676425
17	0x3ed79f4a	0.42113715
18	0x3f58484d	0.8448532
19	0xbe710c0e	-0.23539755
20	0x3f2c266c	0.6724613
21	0x3e386a4d	0.180093
22	0xbe6d8554	-0.23195392
23	0xbf28da68	-0.6595826
24	0x3f5bedbe	0.8590964
25	0xbf103434	-0.56329656
26	0xbed98703	-0.42485818
27	0xbf0f5de4	-0.5600264
28	0xbf1818de	-0.59412944
29	0xbee086a5	-0.43852726
30	0xbe66ca4c	-0.22538108
31	0xbe9f401e	-0.31103605
32	0xbf1374e8	-0.5760026
33	0xbf18db07	-0.5970921
34	0x3d5ea0c9	0.054352555
35	0x3ef91a79	0.4865301
36	0x3f720726	0.9454216
37	0x3f5e7017	0.86889786
38	0xbeea2dee	-0.45738167
39	0xbf85be36	-1.0448673
40	0xbf23cf3d	-0.63988096
41	0x3ee7c1b4	0.4526497
42	0xbf454064	-0.7705138
43	0xbe37d788	-0.17953312
44	0xbec0cd2e	-0.3765654
45	0x3ee60d9b	0.44932255
46	0xbf202d24	-0.6256888
47	0x3f71b857	0.94421905
48	0xbf487b7c	-0.7831342
49	0x3ec36ee6	0.38170546
50	0xbefa7c1c	-0.48922813
51	0xbd6cdef7	-0.057829823
52	0x3edf3e40	0.4360218
53	0xbf0baeab	-0.545634
54	0x3f928ace	1.144861
55	0xbf2d4f56	-0.6769918
56	0x3f65c951	0.8976031
57	0x3f04d4ae	0.51887023
58	0xbdd7b1db	-0.1053197
59	0x3ec40c82	0.38290793
60	0x3f51b0db	0.81910485
61	0xbf5ba299	-0.8579498
62	0x3cd5de73	0.026107049
63	0xbf092a7a	-0.5358044

mlp_extractor.value_net.2.weight f4 [64, 64]
0	0xbef00a70	-0.46882963
1	0x3f1ff523	0.62483424
2	0xbb871c38	-0.004123237
3	0xbe944e98	-0.28966212
4	0xbe6bef53	-0.23040514
5	0xbe27d9f6	-0.16391739
6	0x3e033bb7	0.12815748
7	0x3d0973e7	0.0335578
8	0x3e081019	0.13287391
9	0xbf7225ad	-0.9458874
10	0xbe004625	-0.12526758
11	0x3f53324e	0.82498634
12	0x3f7b4219	0.9814773
13	0xbf494ea9	-0.7863565
14	0xbda51a79	-0.0806169
15	0xbfb9c70a	-1.4513867
16	0x3fca0b16	1.5784633
17	0x3f359acd	0.7093933
18	0xbf4fe5e5	-0.81210166
19	0x3ede5fe4	0.43432534
20	0x3f18886e	0.59583175
21	0xbf48861f	-0.7832965
22	0x3f6226fb	0.8834073
23	0x3f3e70ab	0.7439067
24	0xbf00f14c	-0.5036819
25	0x3f561e05	0.83639556
26	0x3f63934c	0.8889663
27	0xbe755fe0	-0.23962355
28	0xbe3a54a4	-0.1819635
29	0xbf6b11c3	-0.9182398
30	0x3fb2ad54	1.3959146
31	0xbf35b572	-0.7097999
32	0xbfcf4c64	-1.6195188
33	0x3fe14693	1.7599663
34	0x3dd8dbd9	0.105888076
35	0x3e7cc3de	0.24684092
36	0xbd9428c9	-0.07234342
37	0x3f49d107	0.78834575
38	0xbea2cd3a	-0.317972
39	0xbefe938e	-0.4972195
40	0xbf6846cf	-0.90733045
41	0xbf1d7de4	-0.6152022
42	0x3d189f67	0.037261393
43	0x3ea2d33d	0.31801787
44	0xbde2e088	-0.11077982
45	0x3e8def15	0.27721468
46	0xbe80cb58	-0.2515514
47	0xbf48568e	-0.7825707
48	0x3e88c7ed	0.2671503
49	0x3f7b8f10	0.9826517
50	0xbec791db	-0.38978466
51	0xbf78caf9	-0.9718471
52	0xbea0b8f3	-0.31391105
53	0xbc1758d1	-0.009237484
54	0xbfc5a568	-1.5441103
55	0xbf7a87c0	-0.9786339
56	0xbee7be4e	-0.45262378
57	0x3ead3ffe	0.33837885
58	0xbf17335d	-0.5906275
59	0xbe507e25	-0.2036062
60	0xbf11c019	-0.5693374
61	0xbf24434f	-0.64165205
62	0xbf3a336a	-0.727347
63	0x3f9a2728	1.20432
64	0x3e00dce2	0.1258426
65	0xbe08d059	-0.13360728
66	0xbe251984	-0.16123015
67	0x3e71c47d	0.2361011
68	0xbe68ffab	-0.2275378
69	0x3fa8d578	1.3190145
70	0x3de1b1e6	0.110202596
71	0xbf230d61	-0.6369229
72	0x3ff3001f	1.8984412
73	0x3e9cb62b	0.30607733
74	0x3f64ea7e	0.89420307
75	0x3f49b5b1	0.78792864
76	0xbeca9327	-0.39565393
77	0xbf78c30f	-0.97172636
78	0xbe996a95	-0.29964128
79	0x3f9d1b25	1.2273909
80	0x3f092809	0.53576714
81	0x3f5c7928	0.8612237
82	0x3fd3f88d	1.6560227
83	0xbf5824b7	-0.8443102
84	0x3f356f1b	0.7087266
85	0xbf54a1d1	-0.8305941
86	0xbf9ebd7e	-1.2401578
87	0x3c3f3cae	0.011672182
88	0xbecb6e7b	-0.39732727
89	0x3edc1041	0.4298115
90	0xbeda0c1b	-0.4258736
91	0x3e819ec7	0.2531645
92	0x3f0ad82e	0.54236114
93	0xbdb52234	-0.08844414
94	0x3ea08149	0.31348637
95	0xbf5d7ad9	-0.86515576
96	0xbeee09dc	-0.46491897
97	0xbf49b611	-0.78793436
98	0x3decdabb	0.11565157
99	0x3d478336	0.048709117
100	0xbf819cfa	-1.012603
101	0x3fa5df55	1.295878
102	0x3f750612	0.9571239
103	0xbf23f25c	-0.64041686
104	0x3e086583	0.13319974
105	0x3f055475	0.52081996
106	0xbeaa13ec	-0.33218324
107	0x3eb597c3	0.35467348
108	0xbe5b3e4d	-0.21410485
109	0x3e3824e2	0.1798282
110	0xbee77967	-0.4520981
111	0x3f20e98e	0.62856376
112	0xbfad586e	-1.3542612
113	0xbed1e609	-0.40995815
114	0x3ed37821	0.4130259
115	0xbf27fb3c	-0.6561773
116	0x3ebb1914	0.3654257
117	0xbe8c5d71	-0.2741504
118	0xbda64ff2	-0.08120717
119	0x3e3e626f	0.18592237
120	0x3fd1734e	1.6363313
121	0xbd92cf99	-0.07168502
122	0x3eafc52a	0.34330112
123	0x3eb8f13c	0.36121547
124	0xbf8f158d	-1.1178452
125	0xbf99b20c	-1.200746
126	0xbf8751db	-1.0571855
127	0xbf19074d	-0.59776765
128	0x3e1ef755	0.15524037
129	0x3ec6d317	0.38832924
130	0x3e940f4c	0.2891792
131	0x3fb93b00	1.447113
132	0xbf235c06	-0.6381229
133	0xbea00f9b	-0.31261906
134	0x3eb70742	0.35747725
135	0x3f141daf	0.57857794
136	0x3d228c6b	0.039684694
137	0x3eabebb8	0.33578277
138	0xbf36a85e	-0.7135066
139	0x3e62f978	0.22165477
140	0xbeff610e	-0.49878734
141	0x3d7f1dc9	0.062284265
142	0xbe8b6a33	-0.2722946
143	0x3ea7eb5e	0.32796758
144	0xbf037a1d	-0.51358205
145	0xbebf4687	-0.37358496
146	0xbf35423e	-0.708042
147	0x3e842a95	0.25813738
148	0xbec364ab	-0.3816274
149	0x3f14df15	0.58152896
150	0x3f7bc844	0.98352456
151	0xbd73c3a8	-0.059512764
152	0xbebeb219	-0.37245253
153	0xbedcedb4	-0.43150103
154	0xbea5d6f9	-0.32390574
155	0x3ea1778a	0.31536514
156	0xbea706c7	-0.32622358
157	0xbe9faf69	-0.31188515
158	0xbec2628e	-0.37965816
159	0xbd6d2776	-0.05789896
160	0x3e9887ba	0.2979105
161	0xbe776e04	-0.24163061
162	0x3f87f25e	1.062084
163	0xbf12c087	-0.57325023
164	0xbd13224f	-0.03592139
165	0xbe2eeb42	-0.17081931
166	0xbf120cd4	-0.57050824
167	0x3dbe0f28	0.092802346
168	0x3f1df6a3	0.6170446
169	0xbf12227f	-0.57083887
170	0xbddee6c2	-0.10883857
171	0x3efa8c29	0.4893506
172	0xbee4636a	-0.44607097
173	0xbf35ec24	-0.71063447
174	0x3e7fced6	0.24981245
175	0xbef03715	-0.46917024
176	0x3ea243ef	0.31692454
177	0x3ecd3fa1	0.40087608
178	0xbd00a398	-0.031406015
179	0xbf0dbfae	-0.55370605
180	0x3f2c2857	0.67249054
181	0x3e99b3e4	0.30020058
182	0x3f57bef5	0.8427575
183	0x3f477377	0.7791056
184	0xbea6d2dd	-0.3258275
185	0xbf3acdad	-0.72970086
186	0xbd863dc8	-0.065547526
187	0xbfe51937	-1.789832
188	0xbf5139e3	-0.81728953
189	0x3e2245e9	0.15846981
190	0xbe3cd33d	-0.18439956
191	0x3f1ea953	0.6197712
192	0xbf49e295	-0.7886136
193	0x3f128a8f	0.57242674
194	0xbe5c3c4c	-0.21507376
195	0x3ea9cb07	0.3316271
196	0x3ecfb88d	0.4057049
197	0x3f062c13	0.52411
198	0x3d371440	0.044697046
199	0xbf0d4368	-0.5518098
200	0x3e059446	0.13044843
201	0x3e5aff41	0.21386434
202	0xbf41092b	-0.75404614
203	0x3f21b4ad	0.63166314
204	0x3fa9fb12	1.3279746
205	0xbf262a74	-0.6490853
206	0xbf228f46	-0.6349987
207	0xbff6f7a0	-1.9294319
208	0xbe0a85b0	-0.1352756
209	0x3d90a1ea	0.07062133
210	0x3da9bf99	0.082884975
211	0x3ebed04b	0.3726829
212	0x3f3e04b3	0.7422592
213	0xbdda5526	-0.10660772
214	0x3db0713e	0.08615349
215	0x4012faf0	2.296566
216	0xbf1889c7	-0.5958523
217	0xbd0980ec	-0.033570215
218	0x3f3a4091	0.7275477
219	0xbd907002	-0.07052614
220	0x3ff311a6	1.8989761
221	0x3d9c100b	0.076202475
222	0x3e9cdbf3	0.30636558
223	0x3d5122b2	0.05105848
224	0x3ebf8c45	0.37411705
225	0x3f8e14b8	1.1100073
226	0xbcba6a58	-0.022755787
227	0xbf599662	-0.8499509
228	0xbe84bb01	-0.25923923
229	0xbf880a05	-1.0628058
230	0x3f1cb453	0.6121265
231	0xbe2c484a	-0.16824451
232	0x3f6c1067	0.9221253
233	0xbf0ac717	-0.54210037
234	0x3f611a1a	0.8793045
235	0xbe7514b8	-0.23933685
236	0xbe6a39ea	-0.22873655
237	0xbf52b146	-0.8230175
238	0x3fa07b8d	1.2537705
239	0xbfe18788	-1.7619486
240	0xbf3f8438	-0.74811125
241	0xbfeb113b	-1.8364633
242	0x3f1503ba	0.5820881
243	0xbf3fcbca	-0.7492033
244	0xbe2b2bb6	-0.16715893
245	0x3e42bd1b	0.1901745
246	0xbe848d0a	-0.25888854
247	0xbeb402ab	-0.35158285
248	0xbf551eae	-0.8324994
249	0xbeb8ddad	-0.36106625
250	0xbf9b44f3	-1.2130417
251	0xbe0b1e90	-0.13585877
252	0xbd973b0b	-0.073843084
253	0xbee974f0	-0.4559703
254	0xbeb4b2e4	-0.35292733
255	0x3f238bb2	0.63885033

mlp_extractor.value_net.2.bias f4 [64]
0	0xbecdc1af	-0.4018683
1	0x3ef62c75	0.48080793
2	0xbd87e075	-0.06634609
3	0xbe8d6764	-0.27617943
4	0xbf2b6b80	-0.66960907
5	0x3dadcad9	0.08485956
6	0x3f082207	0.5317692
7	0x3e8b204b	0.27173075
8	0x3dfd461d	0.12366889
9	0xbee45ff1	-0.44604447
10	0x3e5bfab8	0.2148236
11	0x3e5790ed	0.21051379
12	0x3dc3a4c7	0.09552913
13	0xbe3406af	-0.17580675
14	0xbd2af1b4	-0.041734412
15	0xbd3269ab	-0.043557804
16	0xbdf5bca8	-0.11998874
17	0xbdd80704	-0.10548213
18	0x3f0e3295	0.5554593
19	0xbd3aef12	-0.04563815
20	0xbec750e1	-0.38928893
21	0x3cd8295c	0.02638691
22	0x3e8e9649	0.27849033
23	0x3ded0e59	0.11575002
24	0xbd9c7682	-0.07639791
25	0xbe8c2a5b	-0.27376065
26	0xbf2d5e9d	-0.67722493
27	0x3dc0add7	0.09408157
28	0x3df966d2	0.121778145
29	0x3f277822	0.65417683
30	0x3d2b9e7a	0.041899182
31	0x3db611b2	0.08890094
32	0xbdf6d864	-0.12052992
33	0x3e1548c9	0.14578547
34	0x3ef695a7	0.4816105
35	0xbcf11b92	-0.029432092
36	0xbe44fe56	-0.19237646
37	0x3e1117fb	0.14169304
38	0xbf3404ab	-0.7031962
39	0x3e3baf77	0.18328653
40	0x3f513c61	0.81732756
41	0x3ef69148	0.48157716
42	0xbedec1a0	-0.435071
43	0xbe9c8982	-0.3057366
44	0xbdfda27e	-0.123845086
45	0xbf5dba5c	-0.86612487
46	0xbe52d473	-0.20588855
47	0xbe83b5e6	-0.25724715
48	0x3f67be77	0.90525
49	0x3e961770	0.29314756
50	0xbe0d7f8a	-0.13818184
51	0x3e06befc	0.13158792
52	0x3ec299ae	0.38007873
53	0x3e500bc6	0.20316991
54	0x3ea7ea14	0.32795775
55	0xbef366c4	-0.4753934
56	0x3e8fdaaf	0.2809653
57	0x3e2ce218	0.16883123
58	0x3f2ccff6	0.67504823
59	0x3e288e47	0.16460524
60	0xbea94e49	-0.3306754
61	0xbea99bf0	-0.33126783
62	0x3e2b157e	0.16707417
63	0xbe38278a	-0.17983833

action_net.weight f4 [4, 64]
0	0x3d402e6d	0.046919275
1	0xbe1470b4	-0.14496118
2	0x3c0c3712	0.008558052
3	0xbde4f12a	-0.11178811
4	0xbd961cba	-0.07329698
5	0x3e5eec3b	0.21769802
6	0x3d8bae63	0.06820371
7	0x3e05b988	0.13059056
8	0xbf4dddfc	-0.80416846
9	0x3f66e87a	0.9019848
10	0x3cec84ed	0.028871978
11	0x3ec9d28d	0.3941845
12	0xbe6c6cba	-0.23088351
13	0xbd22ad52	-0.039716072
14	0xbd5868b3	-0.052834224
15	0x3e44c133	0.19214325
16	0x3e724156	0.23657736
17	0x3d04839b	0.03235207
18	0x3d118cd1	0.035534684
19	0xbf11abed	-0.5690296
20	0x3f3f0ddc	0.7463052
21	0x3b523a1c	0.0032078093
22	0xbf43eecd	-0.76536256
23	0xbf3cdbba	-0.73772776
24	0x3e4ee1a4	0.20203263
25	0xbd6e5d27	-0.058194306
26	0xbe55baaf	-0.20871995
27	0x3db4c1a5	0.08825997
28	0xbb296d3c	-0.0025852462
29	0xbc8c5c4c	-0.017133854
30	0xbcb5fe6a	-0.02221604
31	0x3f2dfe00	0.679657
32	0xbe467632	-0.19381025
33	0xbc38e484	-0.011284951
34	0x3dafa412	0.08576216
35	0xbe91d505	-0.28482834
36	0xbe530fb0	-0.20611453
37	0x3ed93668	0.4242432
38	0x3e0196ad	0.12655134
39	0xbe6d1130	-0.23151088
40	0x3e2c3c2a	0.16819826
41	0x3ea4d8b6	0.32196587
42	0xbf6a2794	-0.9146664
43	0x3eaa0af9	0.33211496
44	0x3b87f9e1	0.004149661
45	0xbdf59a84	-0.11992362
46	0x3c76e1dc	0.0150684975
47	0x3e8552d7	0.26039764
48	0x3da2852d	0.079355575
49	0x3b9643c2	0.004585714
50	0x3f185073	0.59497756
51	0xbe9d88b6	-0.30768365
52	0xbb84f065	-0.0040569776
53	0x3db564ca	0.088571146
54	0xbc47e582	-0.012200715
55	0x3c98d546	0.018656384
56	0x3bddbb00	0.006766677
57	0xbd8aac38	-0.06771129
58	0xbe568676	-0.2094973
59	0xbe1dbc7b	-0.15403931
60	0x3d35a796	0.044349276
61	0x3ba9fea7	0.0051878276
62	0xbcfb4fbb	-0.030677667
63	0x3e4936a9	0.19649757
64	0xbe1ca684	-0.15297896
65	0x3df513ec	0.119666904
66	0xbb42aef4	-0.002970633
67	0x3cf098b0	0.029369682
68	0xbdd84516	-0.10560052
69	0x3ee064f6	0.43827027
70	0xbe1f7704	-0.15572745
71	0x3ee597c9	0.44842365
72	0xbdda02bb	-0.10645052
73	0xbe4f8206	-0.20264444
74	0xbc67a559	-0.014138543
75	0xbde0d5e3	-0.10978296
76	0x3edebb80	0.43502426
77	0x3d0bc5ad	0.034124065
78	0xbc4bb17d	-0.012432453
79	0x3e2f079a	0.17092744
80	0xbe45ee2e	-0.1932914
81	0xbc35146d	-0.011052233
82	0xbc3f5eb5	-0.011680295
83	0x3f26ff4e	0.65233314
84	0x3e0c133f	0.13679217
85	0x3caa7317	0.020806832
86	0xbf1cedf0	-0.61300564
87	0xbebb157d	-0.36539832
88	0x3c194897	0.009355686
89	0xbc4aa731	-0.012368963
90	0x3e531500	0.2061348
91	0x3e03986e	0.12851116
92	0xbd3b7b79	-0.04577205
93	0x3ecabb55	0.39596048
94	0xbd9b3dd7	-0.075801544
95	0x3efba17e	0.49146646
96	0x3eab6119	0.33472517
97	0x3b4b1b4d	0.0030991614
98	0xbcf9c5f6	-0.030489903
99	0xbdae4adc	-0.08510372
100	0x3f44dcd0	0.76899433
101	0xbdbf6ffe	-0.09347533
102	0xbdd9d13a	-0.1063561
103	0xbe171edc	-0.14757866
104	0xbea50c6d	-0.32236043
105	0x3ecf1bc6	0.40450877
106	0xbd5d70c7	-0.05406263
107	0xbea352d1	-0.3189912
108	0x3c008e69	0.007846453
109	0x3cbfd21f	0.023415623
110	0x3de4daf6	0.11174576
111	0x3e191096	0.14947733
112	0x3e41f83d	0.18942352
113	0xbb462cf6	-0.00302392
114	0xbfe528a3	-1.7903026
115	0xbefd2237	-0.49440166
116	0x3bf14cdc	0.0073638987
117	0x3ddb2315	0.10700051
118	0x3db9bd74	0.090693384
119	0x3e87d1f1	0.2652736
120	0xbb216566	-0.0024627089
121	0x3df8f2c4	0.12155679
122	0xbd48832c	-0.04895322
123	0xbdae6259	-0.08514852
124	0xbe9ed54b	-0.31022105
125	0x3c1f5dbd	0.009726939
126	0x3d7dac4c	0.061931893
127	0x3dbd4675	0.09241954
128	0x3ea59e28	0.32347226
129	0xbcdd1351	-0.02698675
130	0x3c1045cc	0.008805703
131	0x3d5c0d36	0.053723536
132	0x3c4b2d45	0.01240093
133	0xbd029d07	-0.031888034
134	0xbd88f9a0	-0.06688237
135	0xbf7114c3	-0.94172305
136	0x3f14e2cd	0.5815857
137	0xbf567f1a	-0.8378769
138	0xbbbd86ae	-0.0057838773
139	0xbe902e55	-0.2816035
140	0x3d4ea42d	0.05044954
141	0x3e46edd8	0.19426668
142	0xbdcd1826	-0.100143716
143	0xbee4849b	-0.4463242
144	0xbef18863	-0.47174367
145	0xbb0f1759	-0.0021833985
146	0xbc1a88e6	-0.009432053
147	0x3ea78e37	0.3272569
148	0xbf385380	-0.7200241
149	0x3c5fbf20	0.013656408
150	0x3ca914e2	0.02063984
151	0x3eac4020	0.33642673
152	0xbebe6f18	-0.37194133
153	0xbd1de987	-0.038552787
154	0x3f3ec1fd	0.7451475
155	0xbe51f7e7	-0.20504723
156	0xbc076fed	-0.008266431
157	0xbdb52954	-0.08845773
158	0x3d020816	0.031745993
159	0xbf841453	-1.0318702
160	0xbdc7ec56	-0.097618744
161	0xba699b99	-0.00089114305
162	0x3ea9e7d6	0.3318469
163	0x3ecea657	0.40361282
164	0x3e045c52	0.12925842
165	0xbecddd79	-0.40208033
166	0xbdfe7c47	-0.12426048
167	0x3de4375c	0.111433715
168	0x3cb39afb	0.021924486
169	0xbf348b02	-0.7052461
170	0x3f5736cb	0.8406798
171	0xbed97216	-0.42469853
172	0x3b813f61	0.003944323
173	0x3d9a7f4b	0.075438105
174	0x3dc285c3	0.09498169
175	0xbf007d84	-0.5019152
176	0x3dd57d57	0.10424297
177	0xbb027445	-0.0019905728
178	0xbdfc4d3d	-0.123194195
179	0x3ec1f9a7	0.37885782
180	0xbb0e497f	-0.0021711288
181	0xbedaf557	-0.42765304
182	0x3d49e979	0.049294923
183	0xbda92d85	-0.08260635
184	0xbbdb20b4	-0.006687248
185	0x3e51c522	0.20485356
186	0x3e065126	0.13116893
187	0x3e2797f3	0.16366558
188	0x3eff3773	0.49846992
189	0x3b924233	0.004463458
190	0x3ccb557b	0.024821034
191	0xbe540119	-0.20703544
192	0xbe8ff3e4	-0.2811576
193	0x3d2401ca	0.04004077
194	0xbbb268ff	-0.0054446454
195	0x3ce5fa14	0.028073348
196	0x3dd57d0a	0.1042424
197	0xbf28774d	-0.6580704
198	0x3e1e9948	0.1548816
199	0x3eec7d6c	0.4618944
200	0x3e91e0b8	0.2849176
201	0x3e4354d8	0.19075334
202	0x3a92a3cf	0.0011187735
203	0x3c472028	0.012153663
204	0xbe93d4e6	-0.28873366
205	0xbe534ad4	-0.20634013
206	0x3e42d35a	0.19025937
207	0x3e43760b	0.19087999
208	0x3f0d1e62	0.55124485
209	0xbb4d73e7	-0.00313496
210	0x3c0fe5ef	0.008782848
211	0xbeb18118	-0.34668803
212	0x3d755ebc	0.0599048
213	0x3aebef1d	0.0018000338
214	0x3fb780ae	1.4336145
215	0x3f43081e	0.7618426
216	0x3e784f5a	0.2424902
217	0x3df22762	0.11823918
218	0xbf63d45a	-0.889959
219	0x3c7fd358	0.015614353
220	0x3cc2d1be	0.023781653
221	0xbe954295	-0.2915236
222	0x3d4a150b	0.049336474
223	0x3d9e56c4	0.07731393
224	0xbcb44cdf	-0.022009311
225	0x3c187a04	0.009306435
226	0xbeddbd20	-0.43308353
227	0xbdef62c1	-0.11688758
228	0xbf17e66a	-0.5933596
229	0x3dca68bc	0.09883258
230	0x3d8b902f	0.0681461
231	0x3e800e45	0.25010887
232	0x3dbd87b6	0.092544004
233	0x3de5b3ff	0.11215972
234	0xbcc9adfe	-0.024619099
235	0x3f00d7d3	0.5032932
236	0x3bb0ae00	0.005391836
237	0x3ce3249c	0.027727418
238	0xbe96e97b	-0.29475006
239	0x3e5e96b3	0.21737175
240	0xbedf8766	-0.43657988
241	0xbc2a87e6	-0.010408377
242	0x3f8f3bba	1.1190102
243	0x3ea11895	0.31464067
244	0x3c7b35b0	0.015332624
245	0x3e96a57c	0.2942313
246	0xbdf3e3dd	-0.11908696
247	0xbe10cb34	-0.14140016
248	0x3bb3cea5	0.0054872804
249	0xbe7ecb6f	-0.24882291
250	0x3dab3b7c	0.08360955
251	0x3d33a70a	0.043860473
252	0xbe86f762	-0.26360613
253	0x3b6b3ed5	0.0035895605
254	0xbd0dcb62	-0.03461779
255	0xbcbacfa4	-0.022804089

action_net.bias f4 [4]
0	0x3e28af28	0.16473067
1	0xbe6bee5a	-0.23040143
2	0x3e57dbf7	0.21080004
3	0xbe3d1e63	-0.18468623

value_net.weight f4 [1, 64]
0	0xc09308b4	-4.5948124
1	0x40c41635	6.127711
2	0x40abbcf9	5.366818
3	0xc0e99c65	-7.300341
4	0xc03fc5e9	-2.9964545
5	0xc0948e38	-4.6423607
6	0x41111f21	9.0701
7	0xbfe4cb07	-1.7874459
8	0xc10213f9	-8.129876
9	0xc0cb65b2	-6.356164
10	0xbf6bf6e2	-0.9217359
11	0xc0a25dd4	-5.0739536
12	0x409a17cd	4.8154054
13	0xc04d820e	-3.211063
14	0xc0d8f846	-6.780307
15	0xbfbf904e	-1.4965913
16	0x411edff1	9.929673
17	0xc11c2418	-9.758812
18	0x409f600c	4.9804745
19	0xc122c2fe	-10.1726055
20	0xc0920a1b	-4.5637336
21	0x410ea73d	8.91583
22	0xbfde39bc	-1.7361369
23	0xc0a75cdf	-5.230087
24	0xc0537135	-3.3037846
25	0xbfe78c25	-1.8089644
26	0xc01dde0a	-2.4666772
27	0xc103a2b7	-8.227225
28	0x3fc1d147	1.5141991
29	0x406d6349	3.709185
30	0x407c948e	3.946567
31	0x3f1dbaba	0.6161305
32	0x40e7755a	7.233075
33	0xc0ea6151	-7.3243794
34	0xbfdf3a59	-1.7439681
35	0xc136f622	-11.435091
36	0x40a27bf6	5.077632
37	0x40e73563	7.225267
38	0xc035f392	-2.8429914
39	0x401b0587	2.4222124
40	0x403f163b	2.9857318
41	0x408c81e0	4.390854
42	0xc07d7644	-3.9603434
43	0x412417a9	10.255776
44	0xbf5273d3	-0.82207984
45	0xc03c0de5	-2.938348
46	0x40e02c9c	7.0054455
47	0x41072cc6	8.448431
48	0x40482023	3.1269615
49	0xc0f020db	-7.5040107
50	0xbfab9250	-1.3404026
51	0xc119999f	-9.600005
52	0x407d6bd5	3.9597065
53	0x4160ebc7	14.057563
54	0xc0104c4c	-2.2546568
55	0xc0826316	-4.0745955
56	0x408f0dac	4.470419
57	0x4092f673	4.592584
58	0x406793d1	3.618397
59	0x407f0974	3.984952
60	0x4108b53c	8.544247
61	0x411aed63	9.682956
62	0x410e92d5	8.910848
63	0x413b335e	11.700041
